model.pt (torch, 147381 bytes, 58 tensors)

convs.0.mlp.0.weight f4 [8, 4]
-0.015595042 2.3172028 -5.6653023 -0.0614662 0.014465234 -1.869077 4.529511 0.00403684
2.0467248 -1.5599309 -1.3976917 -0.03919942 -2.1811721 1.6699569 1.3619969 0.17132878
-0.44468755 -0.6351451 -8.500125 -0.8921888 2.438183 1.7542423 0.9035833 -0.016351597
-2.1019454 -1.533662 -1.0587438 0.107401446 -0.015494922 -0.9431502 -7.476874 0.034724645
00000000: 5982 7fbc 0d4d 1440 284a b5c0 fbc3 7bbd
00000010: 97ff 6c3c ea3d efbf c1f1 9040 7847 843b
00000020: 8afd 0240 d1ab c7bf 90e7 b2bf 928f 20bd
00000030: 5398 0bc0 26c1 d53f ea55 ae3f d070 2f3e
00000040: 16ae e3be df98 22bf 8300 08c1 7c66 64bf
00000050: 310b 1c40 038b e03f 3c51 673f c9f3 85bc
00000060: 4686 06c0 094f c4bf eb84 87bf 4af5 db3d
00000070: 6ade 7dbc 4b72 71bf 8d42 efc0 6e3b 0e3d

convs.0.mlp.0.bias f4 [8]
-2.4682655 3.7878792 -0.21150962 3.3237202 -0.008176831 -1.8723509 1.1848649 1.7901366
00000000: 10f8 1dc0 9d6c 7240 fa95 58be d5b7 5440
00000010: 1df8 05bc 32a9 efbf a7a9 973f 3223 e53f

convs.0.mlp.1.weight f4 [8]
2.2284324 2.1569386 1.6200569 1.6212704 0.2673141 1.5950108 1.4241022 1.7285496
00000000: a39e 0e40 480b 0a40 065e cf3f ca85 cf3f
00000010: 65dd 883e 5029 cc3f fb48 b63f 1d41 dd3f

convs.0.mlp.1.bias f4 [8]
-1.6421916 1.5816717 0.26111642 -0.25048092 -0.00080536684 -0.21697335 0.20100483 3.4772768
00000000: 5633 d2bf 3874 ca3f 0db1 853e 093f 80be
00000010: 411f 53ba 432e 5ebe 36d4 4d3e b48b 5e40

convs.0.mlp.1.running_mean f4 [8]
7.2835217 -4.7642727 -5.8828726 11.343756 -19.61573 11.37431 -9.066803 -4.559266
00000000: 9c12 e940 ec74 98c0 7e40 bcc0 0680 3541
00000010: 04ed 9cc1 2cfd 3541 a011 11c1 82e5 91c0

convs.0.mlp.1.running_var f4 [8]
50.40126 32.88611 21.456598 24.46804 16.114397 51.149147 39.366776 19.754284
00000000: e49a 4942 608b 0342 1da7 ab41 8cbe c341
00000010: 49ea 8041 ba98 4c42 9477 1d42 c608 9e41

convs.0.mlp.4.weight f4 [8, 8]
1.8360496 -1.805456 -0.8022953 0.672476 -0.815883 -1.1142745 1.6292311 1.9946687
1.9535981 -1.9841337 0.43770865 -0.16803753 -2.2293324 -0.30444857 0.44101828 1.9070964
-0.9742021 0.9797358 -3.1117463 2.6015975 -0.5117688 -1.5134602 2.1090693 -0.21278778
0.20884202 -0.25416508 -0.88232094 3.013456 -0.27286392 -2.6215317 1.163106 0.35360298
2.1364813 -2.2452312 0.32635757 -0.45318714 -0.093926616 0.0021856015 0.38018295 2.2275882
1.0928723 -1.1178454 -0.206983 0.38980186 -0.8713192 0.2854169 -0.66313475 2.2071748
0.7761655 -0.76612175 2.4911888 -2.3252234 -0.65818137 2.5272324 -2.9094286 1.1922659
-2.2483413 2.333301 0.08083401 0.0038101308 -0.44475955 0.2226567 -0.24623312 -2.6912768
00000000: ac03 eb3f 2f19 e7bf 3a63 4dbf 6327 2c3f
00000010: b5dd 50bf 8ca0 8ebf a58a d03f 4e51 ff3f
00000020: 810f fa3f 18f8 fdbf 591b e03e 0812 2cbe
00000030: 62ad 0ec0 afe0 9bbe 26cd e13e bc1b f43f
00000040: 4f65 79bf f7cf 7a3f da26 47c0 9380 2640
00000050: 4803 03bf 10b9 c1bf fefa 0640 0ae5 59be
00000060: afda 553e ed21 82be c9df 61bf 77dc 4040
00000070: d2b4 8bbe 2dc7 27c0 a8e0 943f 730b b53e
00000080: 1cbc 0840 deb1 0fc0 5718 a73e 2508 e8be
00000090: 995c c0bd 4f3c 0f3b 57a7 c23e ce90 0e40
000000a0: 3de3 8b3f 8f15 8fbf 5af3 53be 1c94 c73e
000000b0: c60e 5fbf 2a22 923e 33c3 29bf 5a42 0d40
000000c0: c8b2 463f 8e20 44bf a36f 1f40 76d0 14c0
000000d0: 937e 28bf 2dbe 2140 1434 3ac0 2b9c 983f
000000e0: d3e4 0fc0 ce54 1540 4d8c a53d 63b3 793b
000000f0: 86b7 e3be 1e00 643e 8924 7cbe e13d 2cc0

convs.0.mlp.4.bias f4 [8]
-3.791226 -3.8018181 -0.85965586 -1.3718772 -4.740943 -5.614797 -2.3912857 5.9254985
00000000: 72a3 72c0 fd50 73c0 6812 5cbf ac99 afbf
00000010: ceb5 97c0 6bac b3c0 d30a 19c0 af9d bd40

convs.1.mlp.0.weight f4 [24, 12]
-0.31602558 1.561725 -0.13361572 0.016629979 2.0420923 -2.5345445 0.21294184 0.98363584
4.3248367 5.812042 -0.0975874 -0.06496245 -0.9394174 -0.93544835 -0.4532112 0.32550138
-2.9829576 0.71895194 1.6662492 4.249641 0.3276369 -0.8718943 -0.09978019 0.019060396
-1.3127508 -1.7481893 1.198363 0.23741913 0.5330816 -1.6686215 -2.1397016 8.018033
0.20752093 0.32504526 -0.36934564 -0.03567809 -1.799287 0.9171292 0.9959516 4.196372
-0.8732151 -0.77409136 1.5139837 0.42418435 -0.61362684 1.8677253 3.2118943 0.014687091
-2.2374656 -0.57278305 -0.47592714 -1.3059608 0.07638062 -0.2911688 2.420225 3.9216263
-0.42462304 0.14797266 -0.10052129 0.026814826 -0.786719 6.086827 0.542196 -0.7335411
2.637565 2.9927826 -2.7466946 -3.770894 0.32600483 1.0187483 -1.6498216 -0.057749096
0.22868045 0.5291463 0.3298077 0.20004363 2.4766588 -0.0016133224 2.6360264 -5.902626
0.36226442 0.37462193 -1.1691557 -0.027649159 -0.9924868 -0.31916866 -0.4367917 -0.64507353
-1.3969035 -2.3101122 -0.89027894 -8.890184 -0.33733535 -0.0018096351 -0.046146285 -0.037883822
0.21877009 0.7860579 -0.30250984 -0.16814974 -6.916096 -3.1404176 0.11503062 -3.792375
0.059239205 -0.0006122134 0.062820874 0.016268179 0.2810877 2.0127277 -0.7299897 -0.5541009
0.50766397 2.8705134 2.0854933 -5.9913344 -0.38404042 -0.32059819 0.67424583 0.04633147
-0.49185166 -2.5347328 0.225666 0.5792463 2.714797 1.050479 -0.8558875 -1.1633044
-0.7903528 -1.2320962 7.439268 -2.9053237 -1.2325597 3.8137589 -0.07568433 0.5229167
1.1988121 -1.920972 0.3987153 -2.573159 1.8544512 3.2370126 10.769425 0.043405604
0.13040088 0.7882684 1.1681567 -0.16091272 3.5486007 1.9997076 -0.3520965 5.012657
0.0016997963 0.5253604 7.2933903 0.09153759 -0.45610547 -0.7920602 -0.39261383 0.15536875
-0.0026440076 -0.78124636 0.22825286 -32.793976 -0.40166372 0.034867182 -0.093610704 0.02607176
1.5715102 -2.803553 3.754439 -0.7293399 -6.3558383 -1.1101575 -1.0175495 2.142376
-0.9390192 -0.4757004 -1.4094014 -0.053506296 -0.24903543 0.35300255 0.34425429 0.12699707
0.61961305 -0.1650358 0.14559463 0.3775719 -0.07833447 35.277725 0.8424138 -0.0027967014
-15.437228 0.8793598 0.24173352 0.49502292 1.7921798 -0.92732984 -0.3641157 -0.31559396
-0.54154956 0.1244737 -0.5093788 -0.0682528 0.96670353 0.24576737 -0.46444938 -0.33535695
0.33073372 -1.6963627 -0.84582776 0.76463425 -4.678408 -5.176381 -8.690768 0.02342398
-1.1413571 1.0952559 -2.3368099 -0.58866733 0.76874274 1.5418943 -10.943463 0.74700916
0.1673377 -0.021591282 -0.01641675 0.013064051 1.3602272 1.7421488 3.3536077 1.1036611
2.0056252 3.4411786 -1.9261074 -4.7281003 0.52249724 -0.38190895 -0.1371659 0.076748274
-3.613676 1.3817835 -0.028666051 1.2974195 -0.05265835 -2.0578718 1.1124315 -1.0834923
0.6606294 2.3584661 11.893872 0.03960405 -0.3096283 0.25966248 0.37993994 -0.28431502
00000000: 1bce a1be 9be6 c73f 8fd2 08be 983b 883c
00000010: a4b1 0240 fa35 22c0 6d0d 5a3e 8fcf 7b3f
00000020: 1065 8a40 40fc b940 e7db c7bd 080b 85bd
00000030: a97d 70bf 8b79 6fbf 4c0b e8be 1ea8 a63e
00000040: c7e8 3ec0 3c0d 383f a747 d53f 0ffd 8740
00000050: 06c0 a73e 7734 5fbf 8e59 ccbd 8c24 9c3c
00000060: 3808 a8bf abc4 dfbf f563 993f 001e 733e
00000070: 0978 083f 6495 d5bf dff0 08c0 dd49 0041
00000080: 5e80 543e 556c a63e df1a bdbe 3023 12bd
00000090: 094f e6bf fbc8 6a3f aff6 7e3f ae48 8640
000000a0: 068b 5fbf da2a 46bf 38ca c13f b12e d93e
000000b0: a616 1dbf 9f11 ef3f ad8f 4d40 20a2 703c
000000c0: a332 0fc0 e9a1 12bf b9ac f3be b929 a7bf
000000d0: 716d 9c3d 1414 95be f7e4 1a40 edfb 7a40
000000e0: 3168 d9be 2586 173e 1bde cdbd c4aa db3c
000000f0: 6b66 49bf 49c7 c240 5bcd 0a3f 59c9 3bbf
00000100: ddcd 2840 c089 3f40 d8c9 2fc0 5456 71c0
00000110: 1bea a63e 5866 823f 5b2d d3bf 518a 6cbd
00000120: 352b 6a3e 2276 073f 8edc a83e 3dd8 4c3e
00000130: 9481 1e40 1e76 d3ba a8b4 2840 50e2 bcc0
00000140: b97a b93e 72ce bf3e e5a6 95bf 7d80 e2bc
00000150: 9d13 7ebf 136a a3be 29a3 dfbe 8a23 25bf
00000160: bccd b2bf e1d8 13c0 52e9 63bf 323e 0ec1
00000170: 38b7 acbe 4731 edba e303 3dbd 112c 1bbd
00000180: 4405 603e 173b 493f 92e2 9abe 722f 2cbe
00000190: a950 ddc0 9afc 48c0 2c95 eb3d 46b6 72c0
000001a0: cfa4 723d f27c 20ba 3ba8 803d d844 853c
000001b0: baea 8f3e 88d0 0040 9be0 3abf 8ed9 0dbf
000001c0: 44f6 013f 7eb6 3740 b978 0540 03b9 bfc0
000001d0: f2a0 c4be 7225 a4be 609b 2c3f 11c6 3d3d
000001e0: fbd3 fbbe 1039 22c0 fd14 673e 7c49 143f
000001f0: 3cbf 2d40 1976 863f 711b 5bbf 29e7 94bf
00000200: 9054 4abf 54b5 9dbf 7c0e ee40 d3f0 39c0
00000210: 84c4 9dbf a014 7440 6300 9bbd dedd 053f
00000220: ad72 993f 69e2 f5bf 6924 cc3e a3ae 24c0
00000230: a85e ed3f 372b 4f40 914f 2c41 13ca 313d
00000240: cf87 053e f5cb 493f 2986 953f 4ec6 24be
00000250: 461c 6340 6bf6 ff3f fe45 b4be b067 a040
00000260: b3cb de3a 057e 063f 7463 e940 0f78 bb3d
00000270: a886 e9be 75c4 4abf ae04 c9be fc18 1f3e
00000280: 1647 2dbb c3ff 47bf 1ebb 693e 082d 03c2
00000290: dea6 cdbe e4d0 0e3d f8b6 bfbd 7294 d53c
000002a0: 3f27 c93f 6a6d 33c0 bb48 7040 05b6 3abf
000002b0: 0763 cbc0 a419 8ebf 103f 82bf b01c 0940
000002c0: 9063 70bf 018f f3be 4467 b4bf 6b29 5bbd
000002d0: 2503 7fbe c0bc b43e 1942 b03e 850b 023e
000002e0: f69e 1e3f 25ff 28be c216 153e 1b51 c13e
000002f0: d36d a0bd 641c 0d42 6ea8 573f dd48 37bb
00000300: e3fe 76c1 b91d 613f fe88 773e a573 fd3e
00000310: 2666 e53f 7d65 6dbf 5f6d babe 8895 a1be
00000320: fea2 0abf 11ec fe3d a666 02bf 20c8 8bbd
00000330: e279 773f 71aa 7b3e 4fcc edbe e8b3 abbe
00000340: ee55 a93e 6a22 d9bf 2b88 58bf 12bf 433f
00000350: 85b5 95c0 eaa4 a5c0 630d 0bc1 a6e3 bf3c
00000360: fd17 92bf 5831 8c3f 4b8e 15c0 e7b2 16bf
00000370: 53cc 443f cb5c c53f 6d18 2fc1 fe3b 3f3f
00000380: 935a 2b3e 33e0 b0bc 6c7c 86bc 9a0a 563c
00000390: ed1b ae3f bbfe de3f 82a1 5640 c444 8d3f
000003a0: 2a5c 0040 453c 5c40 b08a f6bf 994c 97c0
000003b0: 61c2 053f 9289 c3be 3875 0cbe 332e 9d3d
000003c0: 7846 67c0 48de b03f 11d5 eabc d811 a63f
000003d0: 48b0 57bd 2cb4 03c0 2864 8e3f e0af 8abf
000003e0: 021f 293f 1cf1 1640 4d4d 3e41 db37 223d
000003f0: 9a87 9ebe 7bf2 843e 7d87 c23e bd91 91be

convs.1.mlp.0.bias f4 [24]
-1.4006447 -2.3853078 -0.27330118 -0.5213579 0.1875909 0.59516054 1.4657774 2.4263093
-1.5773369 -2.4490678 1.7568375 2.1489024 -2.3049405 0.39424992 0.55853224 0.0735657
0.6149357 1.3531026 1.2746514 0.73629886 0.76858896 -0.5121315 0.093300074 -0.7725692
00000000: 5348 b3bf e2a8 18c0 22ee 8bbe b677 05bf
00000010: d417 403e 715c 183f 989e bb3f a748 1b40
00000020: 2de6 c9bf 87bd 1cc0 0de0 e03f 9e87 0940
00000030: 2584 13c0 20db c93e f8fb 0e3f 9da9 963d
00000040: 6d6c 1d3f 7732 ad3f c727 a33f 157e 3c3f
00000050: 3fc2 443f 0d1b 03bf 1c14 bf3d 18c7 45bf

convs.1.mlp.1.weight f4 [24]
0.8570669 1.0026746 1.1826977 0.5485596 1.3694292 0.6115773 1.3733137 2.7662003
1.2491813 1.5116575 0.2866087 0.8517231 0.39707702 2.6072962 1.0934306 2.1334
1.3130347 0.93366903 2.0872116 1.0241106 0.709359 0.8017789 0.66102195 1.7321341
00000000: bd68 5b3f a457 803f a362 973f 676e 0c3f
00000010: 7549 af3f 5490 1c3f bec8 af3f 6d09 3140
00000020: 2ce5 9f3f fe7d c13f 60be 923e 860a 5a3f
00000030: ae4d cb3e f1dd 2640 89f5 8b3f a089 0840
00000040: 8511 a83f ef04 6f3f e094 0540 0e16 833f
00000050: 8d98 353f 6241 4d3f bc38 293f 92b6 dd3f

convs.1.mlp.1.bias f4 [24]
0.05473384 -0.12851226 0.34573942 0.065236494 0.2719093 0.22043508 -1.0306286 -3.7086043
-0.9686266 -0.2659659 -0.20597012 0.025863001 0.19891825 -1.4014951 -0.88851094 -3.938711
-0.6672083 -0.33762634 -1.8090438 -0.34953114 -0.2286377 -0.6706412 0.19324869 -1.2754948
00000000: 9730 603d b898 03be c204 b13e b69a 853d
00000010: b237 8b3e bcb9 613e a3eb 83bf c659 6dc0
00000020: eaf7 77bf af2c 88be d5e9 52be a5de d33c
00000030: 3ab1 4b3e 3164 b3bf 7475 63bf d713 7cc0
00000040: 2ace 2abf 5cdd acbe bf8e e7bf bff5 b2be
00000050: 0020 6abe 24af 2bbf fce2 453e 6a43 a3bf

convs.1.mlp.1.running_mean f4 [24]
40.3155 -0.26361722 2.205313 12.941711 5.986776 -2.9494877 3.9708366 -11.481704
-5.162646 -4.1561036 -57.367214 25.48128 9.440991 -31.568277 -4.0119476 208.0139
-22.30037 -40.218754 -21.976912 -4.1557627 16.550364 18.52967 6.871205 -4.7452655
00000000: 1243 2142 d6f8 86be d923 0d40 4011 4f41
00000010: ab93 bf40 68c4 3cc0 3022 7e40 0fb5 37c1
00000020: 6534 a5c0 cdfe 84c0 0778 65c2 a9d9 cb41
00000030: 4d0e 1741 d58b fcc1 e061 80c0 8f03 5043
00000040: 2867 b2c1 01e0 20c2 b7d0 afc1 02fc 84c0
00000050: 2567 8441 c43c 9441 e9e0 db40 37d9 97c0

convs.1.mlp.1.running_var f4 [24]
745.2257 257.91794 712.6198 179.99417 369.1922 442.58963 469.07245 181.96507
37.667183 579.67053 292.21902 428.98804 65.92447 4880.1953 676.8339 20829.129
984.6546 655.1062 1221.2917 704.69916 296.0212 89.68112 229.9121 1299.3137
00000000: 724e 3a44 7ff5 8043 ab27 3244 82fe 3343
00000010: 9a98 b843 794b dd43 4689 ea43 0ff7 3543
00000020: 32ab 1642 eaea 1044 091c 9243 787e d643
00000030: 54d9 8342 9081 9845 5f35 2944 42ba a246
00000040: e529 7644 ccc6 2344 56a9 9844 bf2c 3044
00000050: b702 9443 bc5c b342 7fe9 6543 0a6a a244

convs.1.mlp.4.weight f4 [16, 24]
0.2553495 1.6848993 1.3148218 -0.26051113 1.227754 -1.2930564 -0.3377753 -1.6860217
1.057552 -1.8283796 -0.62044203 -0.8611556 -2.2025006 0.5686548 0.99527746 1.7116647
-1.0030534 0.21316715 -0.23397683 -1.9536664 0.35197642 0.5745526 1.6815627 1.0975287
-0.83624387 2.904347 0.81791925 0.2834701 1.9474906 -0.2805694 1.4761342 -3.4118714
0.40310025 1.3122112 0.2477197 1.3097718 -1.0859743 1.7756764 1.7544818 0.321441
0.061498377 -0.9229542 1.7518798 0.99235374 -0.6858368 -0.029720647 1.235151 1.3862424
-0.21553859 -0.66693515 1.7279536 -0.053967144 -0.64328325 -1.3192148 -0.8887501 -1.1324482
-0.11611283 1.0510067 -0.66944134 -0.28310272 -1.3754451 0.12390174 0.57854384 10.419946
0.08138187 0.20495334 4.5887766 0.07780079 0.014602541 -0.17827494 1.2240238 1.731595
1.1478853 0.29842985 -2.0464945 2.1349797 1.6930209 -0.42721415 0.7098503 -0.07453146
-0.70815206 1.6474701 -0.14312042 0.28888577 -0.70482475 -0.10049946 -1.3840824 -2.9537475
-0.26913837 -1.029455 3.5483496 -2.5777824 -0.24834378 -0.6723764 -1.3507143 2.9113715
-0.6314758 -0.112623036 0.16902533 -1.0329752 -0.21592838 0.8449092 -0.15351523 -5.8198423
-3.8168776 1.064443 0.07232242 1.6610669 -2.7769964 3.1526914 -0.24175812 2.5837305
-0.39217126 -0.52794105 -0.23694535 0.7043791 -0.3709976 1.2307163 0.75806016 0.5560047
2.437439 -0.32386592 1.9231133 -0.24361788 0.26605776 -4.649986 1.4605777 -1.9448297
1.2267667 0.5844743 0.36227962 0.30521026 0.0014106769 1.548109 -0.67471296 -2.9961598
0.74573374 -3.3493989 0.25813937 0.116972014 0.8772739 -1.1435325 -1.3063958 0.8047573
3.17772 1.443206 -1.1936172 -0.42931852 -0.1955856 -0.08289756 -0.00014922128 0.046323616
-0.8754515 -0.78795475 -0.9879575 1.5248314 -0.58069766 0.6345419 0.84885514 26.007462
-1.0695318 -0.17543799 -0.8873201 -0.38734266 -1.1058172 -0.7725968 1.3850853 -0.5613698
-0.6349078 -0.058983196 0.18693772 0.09711945 -0.97664386 -0.29956752 -0.2490571 -3.0038242
-0.069663405 1.0496858 -0.6977155 2.2817504 -0.15192002 1.402551 2.302101 -2.3928287
0.52923566 -0.5478514 0.41427404 -2.9341462 -1.3824496 -0.5726308 0.33087957 0.59912056
1.0855701 -0.18747976 0.8168441 0.87411153 -0.28906563 -0.080811314 2.5112998 -5.310469
0.58222806 1.1847607 -0.04118764 -2.381453 0.39780492 3.6253366 0.6219574 5.4411716
0.36888653 0.2894226 -0.21359758 -0.17267713 0.8689191 -0.692308 -0.60263664 -0.16592827
-0.07597503 -1.1111318 1.5663838 1.332618 -1.3404777 -0.25377873 -1.1556104 -2.0162575
0.538817 2.9681053 0.13422479 -0.6000765 0.71588093 -3.526883 0.4292214 3.4818444
0.29996747 0.270109 0.33592117 0.21979906 -0.114462525 1.5874764 -1.1924523 -0.19440411
-0.22945131 0.9397749 -0.8153975 -0.0035866527 1.9026705 0.535219 -1.368063 -2.7191577
0.43599164 -0.24631332 -0.20211478 0.23192705 -0.89230436 0.57793415 -0.22955142 -0.76628405
00000000: 2bbd 823e c8aa d73f 154c a83f b761 85be
00000010: 0b27 9d3f df82 a5bf e2f0 acbe 8fcf d7bf
00000020: dd5d 873f 5808 eabf 4ad5 1ebf b274 5cbf
00000030: c5f5 0cc0 5c93 113f 81ca 7e3f d417 db3f
00000040: 0e64 80bf 7d48 5a3e 9f97 6fbe be11 fabf
00000050: 4136 b43e e115 133f 723d d73f d27b 8c3f
00000060: 1414 56bf d2e0 3940 2863 513f fe22 913e
00000070: 5f47 f93f cba6 8fbe f7f1 bc3f 1a5c 5ac0
00000080: 2863 ce3e 89f6 a73f 3caa 7d3e 9aa6 a73f
00000090: 3501 8bbf 5d49 e33f dc92 e03f ea93 a43e
000000a0: b9e5 7b3d ba46 6cbf 993d e03f e50a 7e3f
000000b0: 0093 2fbf b778 f3bc 6e19 9e3f 6470 b13f
000000c0: 26b6 5cbe 43bc 2abf 952d dd3f a70c 5dbd
000000d0: 36ae 24bf 08dc a8bf 2085 63bf 10f4 90bf
000000e0: 90cc edbd 6387 863f 8260 2bbf d7f2 90be
000000f0: 960e b0bf 32c0 fd3d 731b 143f 19b8 2641
00000100: 8aab a63d 4adf 513e 42d7 9240 0556 9f3d
00000110: 7f3f 6f3c b58d 36be d0ac 9c3f e8a4 dd3f
00000120: e8ed 923f cccb 983e c4f9 02c0 82a3 0840
00000130: e9b4 d83f d0bb dabe c0b8 353f f3a3 98bd
00000140: 7449 35bf 4de0 d23f 298e 12be d6e8 933e
00000150: 656f 34bf a9d2 cdbd 9d29 b1bf 330a 3dc0
00000160: 81cc 89be 2ec5 83bf 2918 6340 63fa 24c0
00000170: d54d 7ebe dc20 2cbf 35e4 acbf e953 3a40
00000180: 66a8 21bf e8a6 e6bd fa14 2d3e 8838 84bf
00000190: 541c 5dbe f84b 583f 1933 1dbe 263c bac0
000001a0: b947 74c0 ab3f 883f c71d 943d d79d d43f
000001b0: 4fba 31c0 b2c5 4940 718f 77be d75b 2540
000001c0: acca c8be 2527 07bf cda1 72be 3052 343f
000001d0: 66f3 bdbe 1d88 9d3f 3b10 423f 5356 0e3f
000001e0: 00ff 1b40 c1d1 a5be 9428 f63f f776 79be
000001f0: b938 883e afcc 94c0 36f4 ba3f 2ef0 f8bf
00000200: b106 9d3f 1ca0 153f b77c b93e 8544 9c3e
00000210: 76e6 b83a 7028 c63f fdb9 2cbf 15c1 3fc0
00000220: 68e8 3e3f 8d5c 56c0 d82a 843e 068f ef3d
00000230: 0695 603f 465f 92bf fa37 a7bf 9304 4e3f
00000240: c45f 4b40 f9ba b83f 73c8 98bf a3cf dbbe
00000250: 9747 48be 32c6 a9bd 4878 1cb9 d5bd 3d3d
00000260: 971d 60bf 67b7 49bf c8ea 7cbf ad2d c33f
00000270: 9aa8 14bf 5771 223f 924e 593f 480f d041
00000280: 6be6 88bf 04a6 33be 6927 63bf c751 c6be
00000290: 6b8b 8dbf e7c8 45bf 7a4a b13f eeb5 0fbf
000002a0: 5189 22bf 5d98 71bd 9a6c 3f3e 90e6 c63d
000002b0: 5505 7abf ea60 99be d308 7fbe a83e 40c0
000002c0: b0ab 8ebd 1b5c 863f 7c9d 32bf 3308 1240
000002d0: ec90 1bbe cb86 b33f 9f55 1340 1b24 19c0
000002e0: fd7b 073f fd3f 0cbf ba1b d43e 0dc9 3bc0
000002f0: 1cf4 b0bf ef97 12bf 0c69 a93e f75f 193f
00000300: f6f3 8a3f b2fa 3fbe b21c 513f c6c5 5f3f
00000310: 6900 94be 6780 a5bd 23b9 2040 5def a9c0
00000320: e60c 153f 3da6 973f 5fb4 28bd ba69 18c0
00000330: 16ad cb3e 8405 6840 9a38 1f3f 141e ae40
00000340: b2de bc3e 332f 943e 53b9 5abe 46d2 30be
00000350: 7b71 5e3f 193b 31bf 6546 1abf 1ae9 29be
00000360: cc98 9bbd 9139 8ebf 447f c83f 3a93 aa3f
00000370: c694 abbf 49ef 81be 0beb 93bf 5d0a 01c0
00000380: e9ef 093f 70f5 3d40 3972 093e 9d9e 19bf
00000390: f943 373f 73b8 61c0 e8c2 db3e 8ad6 5e40
000003a0: 5695 993e ba4b 8a3e dcfd ab3e 0113 613e
000003b0: 546b eabd 6d32 cb3f 47a2 98bf df11 47be
000003c0: 49f5 6abe 1695 703f e4bd 50bf 0c0e 6bbb
000003d0: b58a f33f 1d04 093f b01c afbf ae06 2ec0
000003e0: 4c3a df3e 8f39 7cbe 2df7 4ebe 497e 6d3e
000003f0: 0f6e 64bf 7ef3 133f 870f 6bbe 312b 44bf

convs.1.mlp.4.bias f4 [16]
0.40422887 -5.9553223 -1.3636534 0.057762228 -2.7300189 -1.3369294 0.49948853 0.19586527
-2.0137231 -1.0300949 -2.5508926 -2.4471557 -2.6140165 -2.2416828 0.37597898 -0.01974136
00000000: 16f7 ce3e 0092 bec0 328c aebf 1698 6c3d
00000010: a1b8 2ec0 8120 abbf f6bc ff3e e890 483e
00000020: d7e0 00c0 26da 83bf d341 23c0 339e 1cc0
00000030: 0c4c 27c0 bb77 0fc0 5180 c03e a2b8 a1bc

convs.2.mlp.0.weight f4 [40, 20]
-0.010709169 -1.9722203 3.412666 -3.5117474 1.6979185 -0.8429429 0.81816626 -0.708049
-1.4589318 -0.5782445 0.69274294 -0.76486087 2.1509714 -2.2403286 3.892816 -3.5443318
2.2261653 -0.20177712 1.4697864 0.84789324 -0.01639377 4.7608433 -0.10867273 -0.96488273
-0.87553465 -0.07932147 -1.5448933 -0.06488552 1.4250678 1.5834813 -0.92081684 0.07169745
-0.16092254 -0.641815 0.41999966 0.7454496 2.9870665 -0.58332664 20.709208 0.53927225
-0.36745542 0.39296377 -1.4567909 7.468346 0.947235 0.2170131 -2.3890233 1.0024961
0.5246787 -0.08675118 2.2356076 0.68082124 -0.9274516 -0.30719832 -0.7798221 0.017440854
-1.3670993 -1.0592272 -9.083166 -0.108228646 0.5858031 2.2151184 3.771123 -3.217555
-0.13692479 -0.22000177 -0.7550318 2.2231662 2.8614995 2.3680637 -1.7350162 0.95250803
1.4668014 1.430912 -1.2757658 -3.8966448 -0.32572725 -0.2073437 -5.537081 -0.31535307
-5.584085 -3.1595857 -2.9728992 1.2766207 3.1452472 -1.583374 0.38551083 2.5515583
-0.7969443 0.8727974 0.49978137 -3.5994334 0.2782148 1.0891167 2.678623 1.1668061
-0.21932065 -0.70871025 -2.4884152 -0.58880866 -0.017187888 -0.30391046 -1.8545939 6.6253767
0.7812473 -0.6679217 -1.470322 1.0080675 -1.5686767 -0.9671204 -0.6585213 -0.5051648
-0.436413 3.0294719 2.6763937 4.1438084 -2.1699736 -1.5789822 1.9360167 -0.5338733
0.84990036 -0.26350194 3.5627887 -0.028303789 -0.5674608 -0.9691354 -1.0469525 1.4778129
-2.2495077 5.4204907 -0.97833973 -1.96733 2.3006978 0.44099778 1.3858922 -0.8873751
-3.563027 -0.39359733 3.725984 -0.11256708 -1.6146843 1.1238503 -1.1432948 0.9918406
6.0112915 0.44158393 0.76301306 3.1856873 -0.88175935 0.6748324 -1.1930748 -0.69359696
-1.2302482 0.4887407 -0.70517915 1.8186734 -3.0121782 -0.9478902 1.8002769 -0.06765375
0.3008054 -1.2330186 0.52221525 1.4630162 -0.52001804 2.84412 0.55739146 -0.4705245
1.0676622 3.188704 1.0772417 1.4887669 3.8727477 -0.48987454 -0.6715689 -0.41455218
1.8500975 2.8762355 3.5580573 0.008592371 -4.511877 -1.3365341 -0.29076675 1.2522942
-1.4206939 2.5294569 0.9969402 -0.62089765 1.8441803 1.8496065 2.0969076 -0.108624555
1.4368428 3.2091782 0.3779629 -0.10544307 1.2524443 0.656769 3.6270752 0.0054511935
1.7891967 3.9293652 0.6315229 0.0315112 0.062792905 -2.6601145 -1.1794634 0.33782205
-1.2765144 -0.29769266 1.565385 2.960579 -1.2519763 -1.1966017 -0.993378 0.7000034
0.07058971 -1.0440326 10.941504 -4.1228285 3.432892 -0.31606126 0.97621894 -1.9492881
-0.017478514 3.0502007 -0.6382654 -0.083527006 -0.24669173 1.3251859 0.61220324 4.4418497
-0.35918695 -2.0979028 -0.55354625 -0.96569145 -2.509515 -0.71208984 -5.3958144 -0.3657739
0.2758136 -3.5000474 0.49313173 0.16138597 -0.105467394 -0.44065452 -0.95418835 1.387453
-2.8088722 3.5414119 1.7511073 -0.6345178 -0.17203149 -0.28138265 1.4514687 0.32638204
00000000: 8375 2fbc b771 fcbf 1f69 5a40 78c0 60c0
00000010: 6555 d93f 1bcb 57bf 5873 513f b342 35bf
00000020: 47be babf d507 14bf 9a57 313f eccd 43bf
00000030: 84a9 0940 8b61 0fc0 e623 7940 55d6 62c0
00000040: 7e79 0e40 a99e 4ebe f621 bc3f 880f 593f
00000050: 3a4c 86bc d458 9840 cf8f debd 8e02 77bf
00000060: 0a23 60bf 4b73 a2bd 10bf c5bf b3e2 84bd
00000070: 9f68 b63f 84af ca3f a7ba 6bbf 1dd6 923d
00000080: e1c8 24be fd4d 24bf 320a d73e c9d5 3e3f
00000090: 192c 3f40 e554 15bf 75ac a541 bf0d 0a3f
000000a0: 1e23 bcbe 8c32 c93e 2078 babf b1fc ee40
000000b0: fe7d 723f af38 5e3e c2e5 18c0 cb51 803f
000000c0: 5851 063f 9aaa b1bd 3214 0f40 4d4a 2e3f
000000d0: 786d 6dbf 1949 9dbe 6ca2 47bf 1fe0 8e3c
000000e0: 1cfd aebf c294 87bf a654 11c1 fba6 ddbd
000000f0: 31f7 153f 80c4 0d40 145a 7140 6cec 4dc0
00000100: 0336 0cbe 2548 61be c449 41bf 5b48 0e40
00000110: cf22 3740 5b8e 1740 0315 debf 91d7 733f
00000120: 26c0 bb3f 2028 b73f 4b4c a3bf a162 79c0
00000130: b9c5 a6be e851 54be c42f b1c0 f575 a1be
00000140: d3b0 b2c0 a736 4ac0 fb43 3ec0 4f68 a33f
00000150: bb4b 4940 00ac cabf ad61 c53e bb4c 2340
00000160: 8b04 4cbf a76f 5f3f 58e3 ff3e 1e5d 66c0
00000170: 2c72 8e3e 2d68 8b3f 8f6e 2b40 e759 953f
00000180: 9895 60be 096e 35bf 3242 1fc0 2abc 16bf
00000190: 9dcd 8cbc 279a 9bbe 5563 edbf 1603 d440
000001a0: d3ff 473f ebfc 2abf 8333 bcbf 5b08 813f
000001b0: 66ca c8bf 3495 77bf da94 28bf 7b52 01bf
000001c0: 8671 dfbe dee2 4140 094a 2b40 149a 8440
000001d0: d9e0 0ac0 171c cabf 65cf f73f ecab 08bf
000001e0: 1293 593f bae9 86be bb04 6440 59dd e7bc
000001f0: 1c45 11bf 4219 78bf 8a02 86bf f928 bd3f
00000200: eff7 0fc0 a974 ad40 7974 7abf 78d1 fbbf
00000210: a23e 1340 76ca e13e ea64 b13f 042b 63bf
00000220: a208 64c0 9785 c9be 8676 6e40 9289 e6bd
00000230: faad cebf 54da 8f3f 7c57 92bf 44e9 7d3f
00000240: 805c c040 4a17 e23e d354 433f 4de2 4b40
00000250: fbba 61bf d1c1 2c3f adb6 98bf 928f 31bf
00000260: c678 9dbf 393c fa3e 9f86 34bf 4aca e83f
00000270: 87c7 40c0 efa8 72bf 796f e63f 0d8e 8abd
00000280: 2a03 9a3e 8ed3 9dbf e6af 053f 1d44 bb3f
00000290: e71f 05bf 1006 3640 35b1 0e3f 96e8 f0be
000002a0: 28a9 883f ba13 4c40 0ee3 893f ea8f be3f
000002b0: 19db 7740 d6d0 fabe f0eb 2bbf 2f40 d4be
000002c0: ffcf ec3f 3e14 3840 36b7 6340 04c7 0c3c
000002d0: 4c61 90c0 8d13 abbf 61df 94be 2d4b a03f
000002e0: 4cd9 b5bf 9fe2 2140 7937 7f3f 26f3 1ebf
000002f0: 1a0e ec3f e8bf ec3f bc33 0640 8d76 debd
00000300: 77ea b73f 2d63 4d40 5a84 c13e 89f2 d7bd
00000310: 1850 a03f 0322 283f 0022 6840 ed9f b23b
00000320: 6604 e53f b87a 7b40 7cab 213f e311 013d
00000330: 9199 803d 513f 2ac0 a8f8 96bf 03f7 ac3e
00000340: d364 a3bf 2c6b 98be 895e c83f 207a 3d40
00000350: c240 a0bf 3f2a 99bf 054e 7ebf 6c33 333f
00000360: 5691 903d dca2 85bf 6610 2f41 36ee 83c0
00000370: 81b4 5b40 c8d2 a1be 7ce9 793f 4682 f9bf
00000380: 1a2f 8fbc 7d36 4340 5c65 23bf 3510 abbd
00000390: c29c 7cbe b19f a93f 5ab9 1c3f a223 8e40
000003a0: 5ae7 b7be 0a44 06c0 35b5 0dbf 8e37 77bf
000003b0: e59b 20c0 854b 36bf 83aa acc0 b746 bbbe
000003c0: 7137 8d3e c700 60c0 c37b fc3e 5d42 253e
000003d0: 4aff d7bd 789d e1be b045 74bf 0f98 b13f
000003e0: 90c4 33c0 7ea6 6240 4924 e03f c26f 22bf
000003f0: 0629 30be 6311 90be bac9 b93f 8c1b a73e

convs.2.mlp.0.bias f4 [40]
-0.17207195 1.006528 -0.13071306 0.834211 0.1624715 -0.8314428 0.16253626 -0.3697429
0.56570196 0.5038245 -0.72163457 1.9294436 -0.41376004 0.1710468 1.5614218 0.546319
1.0779101 1.8940334 0.863176 1.3522931 -1.07997 -0.24875394 1.3879043 1.0375798
-0.9130718 -2.0709114 -2.092059 1.7245455 0.5628517 0.59507054 -1.027475 0.62888247
-0.60738236 -0.21531482 2.6207738 0.5956053 1.6539102 -1.4018064 1.3106618 1.453166
00000000: a133 30be e9d5 803f a5d9 05be da8e 553f
00000010: ee5e 263e 6fd9 54bf e86f 263e f14e bdbe
00000020: d8d1 103f a4fa 003f 0bbd 38bf 02f8 f63f
00000030: 5bd8 d3be e426 2f3e abdc c73f 90db 0b3f
00000040: f5f8 893f b06f f23f 1af9 5c3f f117 ad3f
00000050: 753c 8abf 5ab9 7ebe d9a6 b13f 6acf 843f
00000060: 13bf 69bf d089 04c0 4be4 05c0 e8bd dc3f
00000070: 0d17 103f 8b56 183f 4d84 83bf 71fe 203f
00000080: 697d 1bbf 7d7b 5cbe c2ba 2740 9779 183f
00000090: 54b3 d33f 646e b3bf c4c3 a73f 5801 ba3f

convs.2.mlp.1.weight f4 [40]
0.7241064 1.1138468 1.436645 1.1228927 1.2687496 0.628723 1.0707312 1.3265052
1.0140817 1.35314 0.89914703 0.8172349 0.51697886 1.0519257 0.9777147 0.57012063
1.1928362 1.8616362 1.5716323 0.8971077 1.2020065 1.0688401 1.1440886 0.99200445
0.42626908 0.45786038 0.97275084 1.0390809 0.58456135 1.0152807 1.1280873 1.2168026
1.0430373 0.9303233 1.075643 1.3970217 0.83042294 0.78139526 1.2459215 1.9541212
00000000: 095f 393f 8892 8e3f fce3 b73f f3ba 8f3f
00000010: 6366 a23f fef3 203f b80d 893f ecca a93f
00000020: 6ecd 813f b133 ad3f 802e 663f 4e36 513f
00000030: ba58 043f 80a5 863f 834b 7a3f 6df3 113f
00000040: dbae 983f 184a ee3f 3f2b c93f daa8 653f
00000050: 59db 993f c1cf 883f 7f71 923f 01f4 7d3f
00000060: f13f da3e ad6c ea3e 3306 793f 9a00 853f
00000070: d0a5 153f b8f4 813f 2a65 903f 30c0 9b3f
00000080: 3f82 853f ab29 6e3f abae 893f 9bd1 b23f
00000090: 9996 543f 8509 483f 5b7a 9f3f a520 fa3f

convs.2.mlp.1.bias f4 [40]
0.31277156 -1.7639221 -3.4746377 0.13805455 0.00072104397 0.6833209 -0.7930937 -1.3235184
-0.5437013 -1.8511223 -0.242933 0.3244793 0.095039725 -0.40277237 -1.1942754 -0.19301757
-1.3083578 -2.7517147 -2.4074328 -0.31101546 -1.6242322 -0.6055597 -0.79922724 -0.3715508
0.14658538 -0.021112248 -1.031131 -1.4758288 0.4298019 -0.5247662 -0.6861169 -0.70988935
-0.77488357 -0.38998336 -1.375238 -1.8703108 0.16096127 0.34963492 -1.6107485 -2.8501484
00000000: 9823 a03e 33c8 e1bf 7760 5ec0 2c5e 0d3e
00000010: 7104 3d3a 1eee 2e3f 3008 4bbf 0d69 a9bf
00000020: 0230 0bbf 93f1 ecbf 6ec3 78be 2722 a63e
00000030: 30a4 c23d 2e38 cebe 04de 98bf 66a6 45be
00000040: 4578 a7bf 181c 30c0 6113 1ac0 6b3d 9fbe
00000050: d7e6 cfbf f605 1bbf 289a 4cbf e83b bebe
00000060: 7a1a 163e 98f3 acbc 1afc 83bf f5e7 bcbf
00000070: ff0e dc3e 1457 06bf 5ba5 2fbf 4fbb 35bf
00000080: c55e 46bf e6ab c7be cc07 b0bf 5866 efbf
00000090: 08d3 243e 5903 b33e 022d cebf d568 36c0

convs.2.mlp.1.running_mean f4 [40]
-5.79423 19.269285 6.1771545 -15.929807 -42.104816 6.8057494 -18.215298 -4.8536186
39.50789 4.9034905 -58.20113 2.6768866 30.36302 -58.866596 140.12704 36.073788
-26.784218 119.68857 14.956347 -51.97953 7.778583 -36.289745 12.929975 -46.861534
-114.5636 -91.69437 9.956675 20.5817 -129.05481 6.6306725 42.314167 38.45265
29.654829 14.006294 -156.14166 -45.186848 54.32597 50.59476 3.2004201 -46.417053
00000000: 556a b9c0 7f27 9a41 40ab c540 7de0 7ec1
00000010: 556b 28c2 b3c8 d940 eeb8 91c1 d850 9bc0
00000020: 1408 1e42 65e9 9c40 f5cd 68c2 1c52 2b40
00000030: 77e7 f241 6577 6bc2 8620 0c43 8f4b 1042
00000040: 1446 d6c1 8c60 ef42 334d 6f41 0aeb 4fc2
00000050: 27ea f840 b328 11c2 2de1 4e41 3672 3bc2
00000060: 9020 e5c2 8463 b7c2 8a4e 1f41 52a7 a441
00000070: 080e 01c3 782e d440 b541 2942 83cf 1942
00000080: 173d ed41 c819 6041 4424 1cc3 55bf 34c2
00000090: cb4d 5942 0961 4a42 afd3 4c40 10ab 39c2

convs.2.mlp.1.running_var f4 [40]
5169.5366 1065.185 3600.7551 6197.7485 10245.73 7725.073 3501.7483 3516.223
2391.3015 1935.7407 3029.198 6279.304 875.1143 2773.0364 3727.0007 3042.645
2472.6863 5646.7773 4073.8533 5279.878 2931.6646 2258.3638 3219.6438 2745.7744
2492.6025 1554.1875 3477.1804 2149.6758 2721.8152 3981.7305 4162.835 6016.8374
230.86604 2770.7 5136.1963 2560.802 4832.339 3630.6934 2581.853 1504.5006
00000000: 4b8c a145 ec25 8544 150c 6145 fdad c145
00000010: ec16 2046 9668 f145 f9db 5a45 91c3 5b45
00000020: d374 1545 b4f7 f144 2b53 3d45 6f3a c445
00000030: 51c7 5a44 9550 2d45 03f0 6845 522a 3e45
00000040: fb8a 1a45 3876 b045 a79d 7e45 06ff a445
00000050: a23a 3745 d225 0d45 4d3a 4945 649c 2b45
00000060: a4c9 1b45 0046 c244 e352 5945 d05a 0645
00000070: 0b1d 2a45 b0db 7845 ae16 8245 b306 bc45
00000080: b5dd 6643 332b 2d45 9281 a045 d50c 2045
00000090: b602 9745 18eb 6245 a65d 2145 0510 bc44

convs.2.mlp.4.weight f4 [32, 40]
0.1119217 -0.22277245 -1.1377671 0.15776151 0.47105518 -0.29395995 -0.3428653 0.18849939
0.56057614 -0.3412424 1.0192051 1.4954641 -0.5466263 -0.023423035 -0.7141067 0.6880649
-0.8008879 0.6389724 -0.17462695 1.1058898 0.7089448 0.1995101 -1.3719531 -1.0521268
0.32507852 -1.1302959 -1.2037005 0.0064781085 -0.67168874 1.7110087 1.6723735 3.271798
0.4323864 -0.671194 0.19695053 0.2979975 -0.4455928 -0.026071567 0.5078488 -1.8248817
1.6610221 -2.1391954 -0.08901818 -1.3751352 -1.2771634 0.33590838 -0.45490175 1.1474408
-0.44417128 -1.5233202 0.5171705 -1.0382985 -0.15240583 0.17772052 3.1897204 -0.51982456
-0.03434744 0.6354682 0.03933334 -2.1556096 0.07393032 2.5733716 0.15275747 0.4509142
-0.6916334 -0.77314055 0.14631882 1.485931 0.8993662 -0.67228985 -0.5322517 1.2521312
0.20134284 -0.13864559 0.15733832 0.023976192 1.7372589 -1.9847474 -0.1591435 -0.24724695
1.1795673 -0.21744567 -1.2215275 -0.31957522 -0.87952805 1.1811413 -2.8947494 -0.97594607
-0.67803234 0.08419416 0.3412297 -2.3271778 -1.5460736 -0.010095729 -1.2685689 -1.3324331
0.21505117 0.41787827 -1.7772498 -0.7142142 -0.005661327 -0.5210638 -0.17161785 0.67650944
-1.2703059 -1.0117291 -2.8669913 -0.7654876 0.7076189 1.9545307 1.0551845 1.2721145
0.36518684 0.90709525 0.51486784 0.45822954 -0.4151737 -0.02797809 0.31673947 -0.29662237
0.85425746 1.9950663 -0.30674988 2.6624463 2.2783642 0.22805609 -2.3045495 -1.3122281
-1.5912545 -0.38124862 2.841598 0.6615858 -0.2139066 -2.2629635 0.35127825 -2.0361907
0.16489698 0.33464238 0.06394308 0.0978977 1.921102 -0.07041199 0.121786796 0.22873862
1.266744 1.0243928 -0.7316364 -0.68001217 -3.1121886 1.0630903 -0.6796082 0.4080041
0.96449083 1.7168396 -3.4953032 -0.25244087 -0.39720237 -0.4231011 0.3884659 -2.2542193
2.942522 1.7422261 0.06985744 -0.92990685 -2.1041443 0.7411128 -0.87455297 1.9879893
-0.060007803 -2.2367291 1.3591942 -1.040971 -0.43418196 -1.8826785 2.5856729 -1.6350029
2.0499017 -0.8686056 -1.1091943 0.5396694 1.3923206 0.8283435 1.1365767 0.5016573
-2.8157823 -0.8201545 0.49291304 -2.1592638 2.5774024 1.1369152 0.26669064 0.9910357
-0.43941066 0.047756944 0.031679712 -1.448151 0.09556588 0.49831212 -0.66398686 -3.6170359
-1.1254823 -2.0622504 -0.03307841 1.4681941 -0.45287117 0.074527904 -0.8965667 -0.55156094
0.05040828 0.19689645 0.07333007 -1.3777148 0.37248456 -0.7984764 1.2413512 -1.0818561
2.3408482 -0.73311937 0.028066443 1.0548142 0.80577064 0.06361145 -1.4588739 1.5400923
-0.08430144 -1.0981377 -3.0038888 0.7007617 -0.06591083 2.668685 2.6331847 -0.3050776
-0.5244826 1.5764393 0.33672547 -1.5910382 -0.25629902 -0.040341683 -1.1194804 -0.9536013
1.5126171 2.4826453 -1.9340947 0.8631692 -0.6355928 -0.487968 -2.8712578 1.0071949
2.014814 -2.6137135 -0.8834389 1.4869795 0.34440872 -0.0100412285 -0.35426614 -0.71947706
00000000: 3437 e53d 761e 64be 5aa2 91bf 3c8c 213e
00000010: 252e f13e eb81 96be 0a8c afbe fc05 413e
00000020: eb81 0f3f 53b7 aebe 5075 823f 5e6b bf3f
00000030: b4ef 0bbf aae1 bfbc b2cf 36bf 0525 303f
00000040: fd06 4dbf b293 233f 68d1 32be cc8d 8d3f
00000050: 687d 353f 604c 4c3e 299c afbf 17ac 86bf
00000060: b170 a63e 89ad 90bf dc12 9abf 5046 d43b
00000070: cbf3 2bbf 5502 db3f 5610 d63f 2365 5140
00000080: c061 dd3e 5fd3 2bbf 66ad 493e 2193 983e
00000090: bd24 e4be 0a94 d5bc 6102 023f b995 e9bf
000000a0: 5f9c d43f 94e8 08c0 2a4f b6bd 6e04 b0bf
000000b0: 177a a3bf 2ffc ab3e e2e8 e8be 57df 923f
000000c0: 6b6a e3be 28fc c2bf 4965 043f f7e6 84bf
000000d0: 4610 1cbe 5efc 353e 6124 4c40 3913 05bf
000000e0: e7af 0cbd 0bae 223f ff1b 213d 82f5 09c0
000000f0: c868 973d 1fb2 2440 746c 1c3e 3ade e63e
00000100: e30e 31bf 8aec 45bf 9ad4 153e fd32 be3f
00000110: dd3c 663f 301b 2cbf a641 08bf d645 a03f
00000120: d12c 4e3e 1cf9 0dbe 4c1d 213e b869 c43c
00000130: 805e de3f 340c febf 83f6 22be 4e2e 7dbe
00000140: 10fc 963f 14aa 5ebe 035b 9cbf 5d9f a3be
00000150: c028 61bf a32f 973f 9343 39c0 9ad7 79bf
00000160: 8793 2dbf fd6d ac3d a9b5 ae3e 7bf0 14c0
00000170: bde5 c5bf 8e68 25bc 7760 a2bf 2b8d aabf
00000180: 6036 5c3e 24f4 d53e ec7c e3bf bed6 36bf
00000190: a782 b9bb 7064 05bf 97bc 2fbe b92f 2d3f
000001a0: 6299 a2bf 5780 81bf c97c 37c0 fff6 43bf
000001b0: 8326 353f 102e fa3f 4910 873f a6d4 a23f
000001c0: c5f9 ba3e 6537 683f 61ce 033f 109d ea3e
000001d0: a691 d4be 4f32 e5bc ad2b a23e e3de 97be
000001e0: 9eb0 5a3f 555e ff3f 520e 9dbe 8565 2a40
000001f0: b8d0 1140 8987 693e bd7d 13c0 17f7 a7bf
00000200: 3aae cbbf 0533 c3be bedc 3540 b05d 293f
00000210: 550a 5bbe 65d4 10c0 beda b33e f350 02c0
00000220: c1da 283e 3f56 ab3e 97f4 823d 977e c83d
00000230: ace6 f53f 2934 90bd 5b6b f93d 753a 6a3e
00000240: ab24 a23f 4e1f 833f 864c 3bbf 4715 2ebf
00000250: 192e 47c0 5813 883f cefa 2dbf eae5 d03e
00000260: dfe8 763f 66c1 db3f 0cb3 5fc0 ee3f 81be
00000270: 1c5e cbbe b5a0 d8be 01e5 c63e 2145 10c0
00000280: 4852 3c40 4401 df3f 6b11 8f3d 600e 6ebf
00000290: 4daa 06c0 92b9 3d3f b4e2 5fbf 6f76 fe3f
000002a0: beca 75bd 9226 0fc0 13fa ad3f 8a3e 85bf
000002b0: 194d debe 9cfb f0bf aa7b 2540 c647 d1bf
000002c0: 9731 0340 f05c 5ebf 14fa 8dbf c627 0a3f
000002d0: 9037 b23f 520e 543f 587b 913f 9d6c 003f
000002e0: c735 34c0 a5f5 51bf 195f fc3e 6131 0ac0
000002f0: 29f4 2440 7086 913f ad8b 883e 84b4 7d3f
00000300: 6ffa e0be c99c 433d 96c2 013d 035d b9bf
00000310: 0bb8 c33d c422 ff3e 0bfb 29bf 847d 67c0
00000320: ce0f 90bf e9fb 03c0 3a7d 07bd c9ed bb3f
00000330: bbde e7be 16a2 983d 6585 65bf 1933 0dbf
00000340: ea78 4e3d 399f 493e 132e 963d f558 b0bf
00000350: 4cb6 be3e f368 4cbf 99e4 9e3f 437a 8abf
00000360: 75d0 1540 b6ad 3bbf 99eb e53c 2704 873f
00000370: fc46 4e3f b846 823d 61bc babf bf21 c53f
00000380: 3ca6 acbd c78f 8cbf b73f 40c0 1e65 333f
00000390: 42fc 86bd bccb 2a40 1986 2840 2233 9cbe
000003a0: 7e44 06bf c3c8 c93f 4867 ac3e 24a7 cbbf
000003b0: a039 83be 523d 25bd 224b 8fbf 371f 74bf
000003c0: 709d c13f a9e3 1e40 6a90 f7bf a8f8 5c3f
000003d0: 36b6 22bf f1d6 f9be b0c2 37c0 c3eb 803f
000003e0: b6f2 0040 1547 27c0 0d29 62bf 5855 be3f
000003f0: 5756 b03e f783 24bc 5f62 b5be a62f 38bf

convs.2.mlp.4.bias f4 [32]
-0.15074117 0.47596738 1.1583353 -2.3485904 -1.5672424 0.35753074 -1.174986 -0.37258777
0.29603922 1.8671981 -1.4943119 0.49872592 0.3770827 1.8458211 -2.251016 -0.1430732
-1.3522437 -0.3763202 0.3354464 -1.41728 -1.0812078 1.5561987 -0.28245473 1.5540969
0.9327988 0.14705475 -0.17264435 -1.8132979 0.953924 0.4389913 -0.4041052 1.1741364
00000000: e55b 1abe ffb1 f33e 5544 943f 4e4f 16c0
00000010: 669b c8bf 450e b73e f165 96bf d3c3 bebe
00000020: 7492 973e 5900 ef3f 9d45 bfbf 0159 ff3e
00000030: fc10 c13e de43 ec3f a510 10c0 c881 12be
00000040: 5216 adbf 0bad c0be a1bf ab3e 6e69 b5bf
00000050: 0465 8abf 8531 c73f e89d 90be a6ec c63f
00000060: e7cb 6e3f 8595 163e aec9 30be 251a e8bf
00000070: 5d34 743f 78c3 e03e e0e6 cebe 1a4a 963f

convs.3.mlp.0.weight f4 [72, 36]
1.1367409 0.14322956 -0.17034346 1.3997966 -1.8062569 -1.4733009 1.3160158 0.75620043
-0.6449352 0.5933394 -1.9622889 0.4225369 -0.22141957 -0.0827887 0.41392484 -0.85728866
0.20035194 0.45331833 0.28726566 -3.8196347 0.27825603 0.7424272 0.510386 -0.4229379
0.33293808 -0.6412378 0.6257043 0.5644253 0.33796886 -0.6606954 0.92091185 1.2810584
0.092268 0.8526696 -4.443022 -10.526195 -1.8455728 0.27017054 0.49037683 0.37257108
0.4104531 -1.548904 -2.6731973 1.992782 1.0771312 -1.0993136 0.9957569 -6.7011733
-1.8225012 -1.6715294 -0.30321246 1.2481498 -1.6267076 -0.77321506 -3.7522461 1.2273889
-1.1854392 -0.6595382 0.31213984 3.640598 0.30735576 0.4665005 -5.4488587 -1.0200263
-2.071107 1.5436786 -0.27258557 0.052482642 5.1375155 0.6165182 -0.85624856 0.38419792
0.8460489 0.46371666 0.27828208 0.5015569 0.8288228 1.4466673 -0.27918068 0.77971184
0.007335642 -2.0210176 -1.0523427 0.1724141 2.0101614 0.9942671 -1.6864893 1.0785193
-0.761568 -0.23257548 0.57098436 -1.3194973 1.0033609 2.88476 -1.4710542 1.1720281
0.4228484 -0.22749707 0.09228545 -0.67865825 0.9668435 0.64141536 1.2108405 1.9536682
8.546748 6.892005 16.229036 1.6517197 -0.044249672 -2.3616722 -0.07288997 0.27538902
1.6092339 1.6771652 -2.798739 -3.4656858 -1.607901 -1.5768855 1.7035681 1.5158582
-1.1696479 1.8601568 -2.385278 -1.1642375 0.42549837 5.69095 0.097564735 1.6979976
-2.0307016 1.1920835 2.53638 1.0061796 -1.801182 1.8469255 -0.8152959 1.8038296
0.6864324 -0.78301984 -2.19347 0.63871497 -5.153577 1.2989159 0.33124277 -0.6327454
0.38735887 1.10714 1.0317929 3.8483834 4.478702 1.1038946 1.4520371 1.266006
1.1972294 -0.1716802 -1.1155299 -1.8004793 1.8569466 0.0758208 -1.6247351 3.161579
-0.5118573 0.375748 0.21625644 0.17278743 2.1975265 -0.12794404 -1.2165833 -0.20201778
-1.799346 -0.600166 0.27668506 1.4480722 -2.3444216 -0.0058279713 1.0314304 -0.7014426
4.1110387 -0.88047534 0.5146846 0.63655406 0.8778522 -1.0415695 -0.6719249 2.2085419
1.4415002 1.0120039 0.54049593 -3.0310347 -1.0454774 -1.9583055 2.4474263 1.606115
0.21423064 0.8687619 -1.9285691 -1.870887 0.46242774 0.9253771 -0.4108064 1.6252555
0.9345464 1.2447377 -0.541886 -1.6522572 -1.1014775 -0.63100904 0.3131428 1.5872673
0.4427093 -0.31409293 -0.7589621 1.0905553 -3.8928466 -0.21625683 3.7293017 9.97925
0.2066887 0.8635683 0.21154824 0.050587174 -0.72367406 -0.28723893 0.5352307 0.1644409
0.29873586 0.8307629 -0.5206352 -0.72241014 -0.64238983 0.26820335 0.8659313 0.5245276
-0.28080827 -0.01219607 -0.42576918 -3.5731368 0.9761391 0.669439 0.964082 1.9134445
1.0271257 -0.6882296 -0.3178466 0.42610356 -0.9457184 1.0769998 0.8842218 -0.18788423
-1.0212398 -0.02446228 0.13146062 14.2086735 2.20576 1.7204493 4.5124784 0.032783724
00000000: ba80 913f c5aa 123e 846e 2ebe 892c b33f
00000010: 6d33 e7bf 2095 bcbf 3573 a83f 5a96 413f
00000020: 791a 25bf 17e5 173f 482c fbbf c256 d83e
00000030: d0bb 62be 1f8d a9bd f5ed d33e 4577 5bbf
00000040: 0f29 4d3e 5719 e83e 7c14 933e e574 74c0
00000050: 9377 8e3e b50f 3e3f a8a8 023f 518b d8be
00000060: dc76 aa3e 2928 24bf 282e 203f 2d7e 103f
00000070: 410a ad3e 5523 29bf e1c0 6b3f b9f9 a33f
00000080: 01f7 bc3d 8e48 5a3f 3c2d 8ec0 4b6b 28c1
00000090: bb3b ecbf cb53 8a3e ac12 fb3e a3c1 be3e
000000a0: e926 d23e 7c42 c6bf aa15 2bc0 7b13 ff3f
000000b0: 6fdf 893f 4fb6 8cbf ede9 7e3f 0370 d6c0
000000c0: b847 e9bf adf4 d5bf aa3e 9bbe 5fc3 9f3f
000000d0: f437 d0bf 6cf1 45bf cd24 70c0 141b 9d3f
000000e0: 79bc 97bf 7fd7 28bf cbd0 9f3e 8fff 6840
000000f0: bc5d 9d3e 27d9 ee3e 0d5d aec0 3990 82bf
00000100: 048d 04c0 4397 c53f 5690 8bbe 0af8 563d
00000110: 8766 a440 23d4 1d3f 1b33 5bbf 97b5 c43e
00000120: a996 583f 456c ed3e fd7a 8e3e 0866 003f
00000130: bb2d 543f 652c b93f c5f0 8ebe 329b 473f
00000140: d35f f03b 5a58 01c0 2ab3 86bf 528d 303e
00000150: 7ca6 0040 4a88 7e3f e2de d7bf ec0c 8a3f
00000160: 1ff6 42bf 4428 6ebe 082c 123f 4ae5 a8bf
00000170: 216e 803f e89f 3840 814b bcbf 0405 963f
00000180: 967f d83e fef4 68be 2700 bd3d 8cbc 2dbf
00000190: 0e83 773f cc33 243f d2fc 9a3f cd11 fa3f
000001a0: 7bbf 0841 4e8b dc40 11d5 8141 8d6b d33f
000001b0: 253f 35bd a325 17c0 5647 95bd caff 8c3e
000001c0: 60fb cd3f 59ad d63f 8a1e 33c0 cccd 5dc0
000001d0: b3cf cdbf 62d7 c9bf 850e da3f a407 c23f
000001e0: 06b7 95bf 9e19 ee3f 65a8 18c0 bc05 95bf
000001f0: ecda d93e 431c b640 05d0 c73d fc57 d93f
00000200: 04f7 01c0 3196 983f 0d54 2240 7eca 803f
00000210: 228d e6bf 0e68 ec3f 3bb7 50bf e3e3 e63f
00000220: 09ba 2f3f fd73 48bf d061 0cc0 d382 233f
00000230: 1aea a4c0 e042 a63f a798 a93e 9afb 21bf
00000240: e753 c63e c3b6 8d3f ca11 843f ea4b 7640
00000250: 8751 8f40 6b4c 8d3f 5adc b93f 7c0c a23f
00000260: d03e 993f efcc 2fbe afc9 8ebf 1b76 e6bf
00000270: 6db0 ed3f f047 9b3d 52f7 cfbf 4f57 4a40
00000280: 1409 03bf 0b62 c03e 5472 5d3e 30ef 303e
00000290: 46a4 0c40 c303 03be 00b9 9bbf c0dd 4ebe
000002a0: f850 e6bf 7ba4 19bf aaa9 8d3e 6e5a b93f
000002b0: 010b 16c0 91f8 bebb e905 843f be91 33bf
000002c0: a18d 8340 d566 61bf 5fc2 033f 35f5 223f
000002d0: ecba 603f 2652 85bf 4503 2cbf c058 0d40
000002e0: 1483 b83f 5889 813f f15d 0a3f 79fc 41c0
000002f0: 34d2 85bf c1a9 fabf a2a2 1c40 2d95 cd3f
00000300: 475f 5b3e 2e67 5e3f 5adb f6bf 3a79 efbf
00000310: 54c3 ec3e 83e5 6c3f 3755 d2be 5f08 d03f
00000320: 6f3e 6f3f 9153 9f3f 0ab9 0abf 2a7d d3bf
00000330: 37fd 8cbf cf89 21bf 4154 a03e 932b cb3f
00000340: cbaa e23e cad0 a0be 574b 42bf 5197 8b3f
00000350: 6624 79c0 6e72 5dbe e1ac 6e40 02ab 1f41
00000360: 34a6 533e d012 5d3f 1aa0 583e 7f34 4f3d
00000370: b442 39bf fb10 93be e104 093f 3263 283e
00000380: e8f3 983e e1ac 543f 5948 05bf dfef 38bf
00000390: a973 24bf f351 893e acad 5d3f 7147 063f
000003a0: 1ac6 8fbe 06d2 47bc 6bfe d9be 46ae 64c0
000003b0: 41e4 793f 5b60 2b3f 14ce 763f c0eb f43f
000003c0: db78 833f d12f 30bf cabc a2be 3f2a da3e
000003d0: 9a1a 72bf 21db 893f 5c5c 623f b964 40be
000003e0: fcb7 82bf 1f65 c8bc 9d9d 063e ba56 6341
000003f0: 2c2b 0d40 af37 dc3f 3966 9040 3a48 063d

convs.3.mlp.0.bias f4 [72]
1.3179826 -1.6502786 -1.3613816 -1.1896558 -0.24001649 -0.9686732 0.7052783 0.034897193
-0.38492516 -1.3198581 0.17903008 0.1212524 -0.26888624 1.2219206 0.16235615 -1.5577724
2.6173 -0.76346636 -0.2073396 0.9426787 1.1426251 0.17357633 -0.23765978 -0.42344007
-2.1178982 1.786931 -0.434378 -1.855897 1.6904373 2.354309 -1.1641964 -1.9773222
-0.7563469 0.29605177 -0.90423405 0.94879484 -2.8625975 0.06573009 0.3480452 0.25858143
-0.0003717385 1.705748 -0.56164706 0.25531125 0.75006944 -1.2420541 -1.2146009 0.8721245
-0.1000327 -0.4486324 2.328317 -0.64050287 0.20003414 0.91677505 0.28309456 0.7403105
-0.910635 1.5024662 1.5292155 3.0300167 -0.93085164 1.9587507 0.09242305 -0.029710727
-1.6077083 0.90134335 1.590934 1.0978407 0.33606064 0.7553558 -1.0482625 -0.5378423
00000000: a7b3 a83f 543c d3bf c141 aebf a446 98bf
00000010: e2c6 75be f8fa 77bf 1e8d 343f 5cf0 0e3d
00000020: e914 c5be 1cf1 a8bf a953 373e 2e53 f83d
00000030: 75ab 89be e567 9c3f b140 263e 1665 c7bf
00000040: d881 2740 8872 43bf d550 54be 6453 713f
00000050: 8a41 923f febd 313e 165d 73be 23cd d8be
00000060: a58b 07c0 28ba e43f cb66 debe 088e edbf
00000070: 4060 d83f 00ad 1640 6304 95bf e518 fdbf
00000080: f39f 41bf 1994 973e e27b 67bf 38e4 723f
00000090: cc34 37c0 7f9d 863d fb32 b23e c964 843e
000000a0: e6e5 c2b9 f355 da3f 1ac8 0fbf 28b8 823e
000000b0: 8d04 403f a1fb 9ebf 0b78 9bbf 8d43 5f3f
000000c0: f2dd ccbd 25b3 e5be 2503 1540 fff7 23bf
000000d0: c0d5 4c3e c5b1 6a3f c5f1 903e fd84 3d3f
000000e0: 601f 69bf d050 c03f 55bd c33f cbeb 4140
000000f0: 4b4c 6ebf 58b8 fa3f 4c48 bd3d e963 f3bc
00000100: 63c9 cdbf 70be 663f baa3 cb3f 0b86 8c3f
00000110: 2410 ac3e ff5e 413f 772d 86bf 08b0 09bf

convs.3.mlp.1.weight f4 [72]
1.8261629 2.655048 1.4914776 2.03667 1.672626 1.4971453 2.3278968 1.9400016
1.7043105 1.4765646 1.7282803 1.7909273 1.5175853 1.6144667 1.2579513 1.8871871
1.1604793 2.5088642 1.9607863 1.1227857 1.0467504 1.9641567 1.984478 2.182606
1.9858729 1.7984538 1.5467697 1.7067494 1.9196062 1.1333789 2.192141 1.6149697
1.8564577 1.833996 2.6999745 1.746907 1.423879 1.3657335 2.3913748 2.5689898
1.2923009 1.3293904 2.94946 2.0256872 2.0581903 1.9088597 1.8781797 0.9022352
1.6536144 2.1445897 1.7903768 1.7083546 2.0591216 2.6043587 1.7142369 2.59897
2.503343 2.270744 1.8227835 2.1187806 3.1629214 2.4880202 1.4981655 1.5410308
1.910452 1.5506295 1.4235969 1.5494483 1.7492148 3.4495237 2.0545049 1.5030283
00000000: b5bf e93f 4eec 2940 bde8 be3f cd58 0240
00000010: 9c18 d63f 75a2 bf3f 43fc 1440 f951 f83f
00000020: d926 da3f 1200 bd3f 4a38 dd3f 1b3d e53f
00000030: 3c40 c23f d8a6 ce3f 8c04 a13f 598f f13f
00000040: 968a 943f 3b91 2040 0cfb fa3f 71b7 8f3f
00000050: ebfb 853f 7d69 fb3f 6003 fe3f d1af 0b40
00000060: 1531 fe3f bc33 e63f 8dfc c53f c476 da3f
00000070: a8b5 f53f 8f12 913f 0a4c 0c40 54b7 ce3f
00000080: 68a0 ed3f 62c0 ea3f 62cc 2c40 a69a df3f
00000090: ab41 b63f 5bd0 ae3f 490c 1940 546a 2440
000000a0: 1e6a a53f 7729 aa3f f4c3 3c40 dca4 0140
000000b0: 64b9 0340 8455 f43f 3168 f03f e3f8 663f
000000c0: a3a9 d33f f540 0940 112b e53f 5dab da3f
000000d0: a6c8 0340 d0ad 2640 1d6c db3f 8655 2640
000000e0: c636 2040 df53 1140 f850 e93f 1a9a 0740
000000f0: 4e6d 4a40 b93b 1f40 e3c3 bf3f 7f40 c53f
00000100: b189 f43f 077b c63f 6c38 b63f 5254 c63f
00000110: 45e6 df3f ffc4 5c40 027d 0340 3b63 c03f

convs.3.mlp.1.bias f4 [72]
-0.21278244 -1.292939 -1.0944443 -1.8433686 -1.7153718 0.21731503 -0.9070431 -0.51756185
0.17063744 -0.4006718 -1.5686941 -3.5412219 -1.974827 -0.22888146 0.48871484 -2.787214
-0.26917633 -1.8516294 0.9537318 0.1018681 -0.15963385 -1.1305867 -2.8371773 -3.4118686
-1.926279 -1.3714622 -1.640596 0.062409356 -1.5864112 0.32020056 0.07504295 -0.47889116
-2.7010975 -1.3684963 -2.2617748 -1.1662455 -0.8241791 -0.29183444 -2.1091928 -0.66747105
0.26958215 -0.97234654 -1.1259679 -2.1219115 -2.5771816 -0.73201233 -1.7779402 -0.07829371
-2.2412732 -0.6759637 -2.547111 -0.6126024 -2.0854328 -3.2394278 -0.3442595 -1.576758
-0.82400715 -2.6552696 -1.7031037 -4.6114597 -3.0516434 -1.967417 -0.768583 -0.30773523
-1.4735105 -0.4652327 -0.30059585 -0.08429144 -0.39530468 -2.4569461 -0.17365575 -1.4189745
00000000: a4e3 59be 067f a5bf c016 8cbf 81f3 ebbf
00000010: 4e91 dbbf d587 5e3e fa33 68bf ef7e 04bf
00000020: 95bb 2e3e db24 cdbe f8ca c8bf 61a3 62c0
00000030: 22c7 fcbf e75f 6abe d538 fa3e b761 32c0
00000040: 7bd1 89be 3102 edbf c427 743f 39a0 d03d
00000050: 0e77 23be 11b7 90bf 5094 35c0 0e5c 5ac0
00000060: 4f90 f6bf 138c afbf 0dff d1bf f4a0 7f3d
00000070: 860f cbbf 54f1 a33e 1eb0 993d 3931 f5be
00000080: c8de 2cc0 e32a afbf ebc0 10c0 8847 95bf
00000090: 67fd 52bf 536b 95be 04fd 06c0 62df 2abf
000000a0: ac06 8a3e b4eb 78bf b71f 90bf 66cd 07c0
000000b0: 8bf0 24c0 2965 3bbf 8b93 e3bf 7458 a0bd
000000c0: 0571 0fc0 f50b 2dbf de03 23c0 83d3 1cbf
000000d0: bb77 05c0 c952 4fc0 c842 b0be 35d3 c9bf
000000e0: 22f2 52bf f0ef 29c0 4dff d9bf 1491 93c0
000000f0: 204e 43c0 52d4 fbbf dbc1 44bf 798f 9dbe
00000100: fe9b bcbf fb32 eebe b3e7 99be fea0 acbd
00000110: 6065 cabe 9b3e 1dc0 d0d2 31be f5a0 b5bf

convs.3.mlp.1.running_mean f4 [72]
-172.29971 -39.43562 110.31957 -36.642338 34.68194 157.2415 244.08765 26.576365
-104.15561 85.99441 33.860233 0.17765681 -145.07745 -75.39872 -149.37654 137.987
-51.46945 -147.04303 -123.110466 7.8481197 -50.143845 66.72334 21.251602 100.726974
49.847836 150.70868 16.42998 -128.75177 -2.189037 -114.444405 19.422895 -27.244762
19.435297 7.194059 -50.84805 15.978549 -167.5474 -11.337434 -29.279627 -20.391605
-121.23624 72.9664 -73.71027 -11.337364 -79.24027 -71.11353 122.10816 58.159313
18.196943 -33.652103 -38.435177 -122.95199 -77.51891 -4.6918187 -151.62503 -6.8698797
199.21556 -80.420296 -7.9741898 -11.549703 205.79665 -37.830853 -43.141415 37.699173
8.705209 -107.64945 63.608685 -123.100945 -163.70876 -376.2664 17.132473 89.358215
00000000: ba4c 2cc3 13be 1dc2 9fa3 dc42 c191 12c2
00000010: 4eba 0a42 d33d 1d43 7016 7443 659c d441
00000020: ac4f d0c2 23fd ab42 e170 0742 abeb 353e
00000030: d413 11c3 25cc 96c2 6560 15c3 acfc 0943
00000040: b8e0 4dc2 040b 13c3 8f38 f6c2 cc23 fb40
00000050: 4c93 48c2 5a72 8542 4803 aa41 3674 c942
00000060: 2f64 4742 6cb5 1643 9970 8341 74c0 00c3
00000070: 2f19 0cc0 89e3 e4c2 1762 9b41 46f5 d9c1
00000080: 7d7b 9b41 bb35 e640 6764 4bc2 23a8 7f41
00000090: 228c 27c3 2166 35c1 ad3c eac1 0222 a3c1
000000a0: f478 f2c2 ccee 9142 a96b 93c2 d865 35c1
000000b0: 057b 9ec2 213a 8ec2 6137 f442 23a3 6842
000000c0: 5793 9141 c19b 06c2 9fbd 19c2 6be7 f5c2
000000d0: af09 9bc2 6123 96c0 02a0 17c3 0ed6 dbc0
000000e0: 2f37 4743 31d7 a0c2 902c ffc0 95cb 38c1
000000f0: f1cb 4d43 cb52 17c2 cf90 2cc2 f4cb 1642
00000100: 8948 0b41 854c d7c2 4b6f 7e42 af33 f6c2
00000110: 71b5 23c3 1922 bcc3 4e0f 8941 68b7 b242

convs.3.mlp.1.running_var f4 [72]
5888.2554 10966.059 2529.5361 6479.9688 4206.8394 7718.763 8234.0205 11338.689
9201.444 4483.8364 5018.235 4015.1326 3685.713 9821.416 8567.311 5828.7124
8141.5635 8101.165 7073.215 8006.96 5642.671 8475.897 4306.22 8372.997
6573.6865 5203.965 5604.0947 4827.65 205.70428 4875.773 11633.637 10464.42
4355.748 6900.6855 14864.088 4762.4595 6778.077 4838.5903 6999.095 13499.395
4977.6685 4136.9336 16061.739 6301.5674 6654.391 16536.672 4629.463 5353.453
3383.3792 9077.877 4161.144 4209.866 3403.4138 7120.8696 5544.667 9908.397
5915.7163 4414.0503 6648.637 411.5435 5604.525 9341.238 5801.9316 6674.3564
6180.6113 4657.579 2032.9255 7556.145 6357.0396 13878.0625 9374.8 4301.1074
00000000: 0b02 b845 3c58 2b46 9418 1e45 c07f ca45
00000010: b776 8345 1b36 f145 15a8 0046 c22a 3146
00000020: c7c5 0f46 b11e 8c45 e1d1 9c45 1ff2 7a45
00000030: 685b 6645 aa75 1946 3edd 0546 b325 b645
00000040: 826c fe45 5229 fd45 b809 dd45 ae37 fa45
00000050: 5e55 b045 976f 0446 c391 8645 fdd3 0246
00000060: 7e6d cd45 b89f a245 c220 af45 33dd 9645
00000070: 4cb4 4d43 2f5e 9845 8cc6 3546 ae81 2346
00000080: fc1d 8845 7ca5 d745 5a40 6846 add3 9445
00000090: 9ed0 d345 b934 9745 c3b8 da45 94ed 5246
000000a0: 598d 9b45 7847 8145 f5f6 7a46 8aec c445
000000b0: 21f3 cf45 5831 8146 b4ab 9045 a04b a745
000000c0: 1176 5345 82d7 0d46 2709 8245 ee8e 8345
000000d0: 9fb6 5445 f586 de45 5645 ad45 97d1 1a46
000000e0: bbdd b845 67f0 8945 19c5 cf45 91c5 cd43
000000f0: 3324 af45 f4f4 1146 744f b545 da92 d045
00000100: e424 c145 a28c 9145 9e1d fe44 2921 ec45
00000110: 51a8 c645 40d8 5846 337b 1246 dc68 8645
